Train/model/battery_soc_model.tflite (tflite, 4100 bytes, 7 tensors)

arith.constant f4 [1, 4]
0	0x3e2a882b	0.16653506
1	0xbe38cef6	-0.180477
2	0x3e2f90de	0.17145106
3	0x3e7c792f	0.24655603

arith.constant2 f4 [4, 8]
0	0x3e49fb94	0.19724876
1	0xbe38b06c	-0.1803605
2	0xbe034931	-0.12820889
3	0x3f6faa18	0.9361892
4	0x3f8861e2	1.0654871
5	0x40a709a2	5.219926
6	0xbf98e27e	-1.194412
7	0xbe1b6d3b	-0.15178387
8	0x3eb23b4d	0.34810868
9	0xbf01f60f	-0.5076608
10	0xbe0081c5	-0.12549503
11	0x3fcdc836	1.6076725
12	0xbee9d693	-0.4567152
13	0xbfc57794	-1.5427117
14	0xbeb62dec	-0.3558191
15	0x3daf02f1	0.08545483
16	0x3d194d16	0.03742703
17	0x3f05700c	0.52124095
18	0xc01d7321	-2.460152
19	0x3e06919a	0.1314148
20	0x401e2aaa	2.471354
21	0xb8c2ff3c	-9.298182e-05
22	0x3dff5808	0.124679625
23	0x3d178c12	0.036998816
24	0x3eed36c2	0.4633084
25	0xbf430a74	-0.76187825
26	0x3ea92881	0.33038715
27	0x3f1c791c	0.611223
28	0xbf87082c	-1.0549369
29	0xc0e66dc0	-7.200897
30	0xbd13d73b	-0.03609393
31	0x3ef8a41e	0.4856271

arith.constant3 f4 [4]
0	0xbf259e62	-0.646948
1	0xbf8400d6	-1.0312755
2	0x3f795252	0.97391236
3	0x3f5c5f81	0.8608323

arith.constant4 f4 [8, 16]
0	0x3e6c8f1d	0.23101468
1	0x3e4aaaed	0.19791766
2	0xbf8c6775	-1.0969073
3	0x3e1b91bd	0.15192313
4	0xbfc6603b	-1.5498117
5	0xc0013c1a	-2.0192933
6	0x3ea40fae	0.32043213
7	0xbf2f6c01	-0.68524176
8	0xc060aff9	-3.5107405
9	0xbdfcf1ca	-0.12350805
10	0x3fc4f860	1.5388298
11	0xbebd2800	-0.3694458
12	0xbf0ce6e6	-0.55039823
13	0xbe936934	-0.287912
14	0x4073887e	3.8052058
15	0x4007c885	2.1216137
16	0x3e4ec581	0.2019253
17	0xb8c96443	-9.603102e-05
18	0xbf20f40e	-0.628724
19	0x3daaa500	0.083322525
20	0xbefe3cee	-0.4965586
21	0xbe5bac9e	-0.21452567
22	0xbf93ba60	-1.1541252
23	0x3ff99528	1.9498644
24	0xc090d81f	-4.526382
25	0xbf89b901	-1.0759584
26	0x4018f508	2.3899555
27	0xbf06c4a6	-0.5264381
28	0x3f06a52e	0.52595794
29	0xbf0bc6e4	-0.5460036
30	0x40b83d1b	5.757459
31	0x3f6e0246	0.9297222
32	0xbf2a2249	-0.66458565
33	0xc0b6f6c8	-5.7176247
34	0xbee593cc	-0.44839323
35	0x3d1cf2f6	0.038317643
36	0x3b984421	0.0046467935
37	0x3e163f3a	0.14672557
38	0xbc5148e4	-0.012773726
39	0x3de676b3	0.11253109
40	0xc0198399	-2.398657
41	0xbdc36100	-0.09539986
42	0xbf31db4f	-0.69475263
43	0xbfc7ebf4	-1.5618882
44	0x3fb0c5be	1.3810346
45	0xbf9a5a21	-1.2058755
46	0xc0c172da	-6.04527
47	0x3d02c569	0.031926546
48	0xbdb2b8bc	-0.087266415
49	0xbfab30d5	-1.3374277
50	0xc02f8ba3	-2.7428977
51	0xbd409a23	-0.047021996
52	0x3fd93b07	1.6971139
53	0xbf06f617	-0.52719253
54	0xbdfa7d98	-0.12230986
55	0xbfac44de	-1.3458517
56	0xbff89306	-1.9419868
57	0x3cabc006	0.020965587
58	0xc05b5a0f	-3.4273717
59	0x3eb4961d	0.35270777
60	0x3f91b6a0	1.1383858
61	0xbe1f0fe7	-0.1553341
62	0xc04878ac	-3.1323652
63	0x3d9aaa84	0.075520545
64	0x3d63ea44	0.055643335
65	0xbf2a1db6	-0.66451585
66	0x4081ca3d	4.0559373
67	0x3df60155	0.12011973
68	0xbf47c51e	-0.7803515
69	0xc0bd95c9	-5.9245343
70	0xbf4bef4a	-0.79662
71	0x407d0e32	3.9539914
72	0xbf8f7c82	-1.1209872
73	0xbf026c31	-0.50946337
74	0x4012dacb	2.294604
75	0x3ea04617	0.31303474
76	0x3f626b07	0.8844456
77	0x3e3bf675	0.18355735
78	0x402fd760	2.7475204
79	0xbe8d9bba	-0.27657872
80	0xbe794928	-0.24344313
81	0x3db70f93	0.089385174
82	0xbed02cee	-0.4065928
83	0x3eae3cf1	0.3403087
84	0x3ee43ba5	0.44576755
85	0xc017de22	-2.372933
86	0x3e547396	0.20747218
87	0x4009e5a9	2.1546423
88	0xbf5aff51	-0.8554583
89	0xbf21d906	-0.63221776
90	0xc02da4b9	-2.7131789
91	0x3f3fe511	0.749589
92	0xbf906854	-1.1281838
93	0xbe2712a1	-0.163157
94	0x3f07ad32	0.5299865
95	0x3d9be69f	0.07612347
96	0xbe980499	-0.29691008
97	0x3f2b27bf	0.6685752
98	0x3eee0f78	0.46496177
99	0xc0243cc3	-2.5662086
100	0x3e7df430	0.24800181
101	0xbf094809	-0.5362554
102	0x3f40eb12	0.7535869
103	0x3f9d4f55	1.2289835
104	0x3fd64e2d	1.6742607
105	0xbe575896	-0.21029887
106	0xc0d042f0	-6.508171
107	0xbf9d8eab	-1.2309164
108	0xc0bdbafa	-5.9290743
109	0x3ffc7a3a	1.97248
110	0xc04ba0f0	-3.1816978
111	0xbeb6b9f0	-0.35688734
112	0x3da21938	0.07914966
113	0xbec1cc34	-0.37851107
114	0xbfc11f92	-1.508776
115	0xbe075a53	-0.1321805
116	0xbf827774	-1.0192704
117	0xbfcc7b49	-1.5975124
118	0xbf2ca99b	-0.674463
119	0x3f501399	0.81279904
120	0x3fa477f3	1.2849106
121	0xbfd4d3c3	-1.6627125
122	0x3ec85a0e	0.39131206
123	0xbef4bfb1	-0.478025
124	0x3f97c323	1.1856426
125	0xbf8c3008	-1.0952158
126	0x40234a40	2.5514069
127	0x3fb348e8	1.4006624

arith.constant5 f4 [8]
0	0x402d93dc	2.7121496
1	0x400f7fce	2.2421756
2	0x4043533c	3.0519552
3	0xbf564bda	-0.8370949
4	0xc0b08fd2	-5.517556
5	0xc080bb33	-4.0228515
6	0x401d60d5	2.4590352
7	0x4058afd7	3.3857324

sequential_4_1/dense_16_1/MatMul;sequential_4_1/dense_16_1/Relu;sequential_4_1/dense_16_1/BiasAdd f4 [16]
0	0x3cc80fc0	0.024421573
1	0xbe4b15c3	-0.1983252
2	0x418426ba	16.51891
3	0x41243ac7	10.26435
4	0x427e56c6	63.58474
5	0x4227f205	41.986347
6	0xbecbe3cd	-0.39822236
7	0xc0e39a48	-7.112583
8	0xc1d7eed4	-26.991615
9	0x413bc4c1	11.735536
10	0x4175e1aa	15.367594
11	0x409f5424	4.979021
12	0xc1a6e38b	-20.861105
13	0x3fc50f9e	1.5395391
14	0xc1206164	-10.023777
15	0x4203db86	32.96438

sequential_4_1/batch_normalization_16_1/batchnorm/mul_1;sequential_4_1/batch_normalization_16_1/batchnorm/add_1;sequential_4_1/dense_16_1/MatMul;sequential_4_1/dense_16_1/Relu;sequential_4_1/dense_16_1/BiasAdd f4 [16, 3]
0	0x3e978f4c	0.29601514
1	0x40e9ee3e	7.3103323
2	0x3d064de9	0.032789145
3	0x3e1b02c3	0.15137772
4	0x410b1db3	8.694751
5	0x3b87beb9	0.004142609
6	0xc09d4863	-4.9150863
7	0x3e39c63f	0.18142031
8	0xbc0479a6	-0.008085644
9	0xc05ce95a	-3.4517426
10	0x3f5ac808	0.85461473
11	0x3dbf01f3	0.09326544
12	0xc18c015c	-17.500664
13	0x3fba9f7c	1.4579921
14	0x3c2d474f	0.010576083
15	0xc1382805	-11.50977
16	0x3fb3e21f	1.4053382
17	0xbd5f092e	-0.054452114
18	0x3de20056	0.1103522
19	0xbff69523	-1.9264263
20	0xbda347dc	-0.079726905
21	0x3ff51f45	1.9150168
22	0xbfafd3fe	-1.373657
23	0xbd981714	-0.07426277
24	0x40e0f221	7.0295568
25	0xbea14846	-0.31500453
26	0xbc0384be	-0.008027254
27	0xc05f9a09	-3.4937766
28	0xc084d3c8	-4.150852
29	0x3c686a3d	0.014185485
30	0xc08f580c	-4.479498
31	0x4091f64b	4.561315
32	0xbb52d4ca	-0.003217029
33	0xbf5fb072	-0.8737861
34	0x410cba39	8.7954645
35	0xbbc833bd	-0.0061096833
36	0x40b477d2	5.6396265
37	0x3fe8e259	1.8194076
38	0xbc9ccecf	-0.019141583
39	0x3d66fa20	0.05639088
40	0x40473e4a	3.1131768
41	0xbc462a9a	-0.012095118
42	0x4022b263	2.5421379
43	0x3ff410a1	1.9067575
44	0x3b9b1422	0.0047326246
45	0xc115c248	-9.359932
46	0x3f6fd4b4	0.93683934
47	0x3d02699c	0.031839
